…
3600
3700
3800
3900
4000
4100
4200
4300
4400
4500
4600
4700
4800
4900
x_train_speech shape:  (4936, 100, 34)
creating mocap data...
x_train_mocap.shape (4936, 200, 189)
x_train_mocap.shape (4936, 200, 189, 1)
creating labels...
Y.shape:  (4936, 4)
inputs shape: (?, ?, 512)
__________________________________________________________________________________________________
Layer (type)                    Output Shape         Param #     Connected to                     
==================================================================================================
input_2 (InputLayer)            (None, 200, 189, 1)  0                                            
__________________________________________________________________________________________________
conv2d_1 (Conv2D)               (None, 100, 95, 32)  320         input_2[0][0]                    
__________________________________________________________________________________________________
batch_normalization_1 (BatchNor (None, 100, 95, 32)  128         conv2d_1[0][0]                   
__________________________________________________________________________________________________
dropout_3 (Dropout)             (None, 100, 95, 32)  0           batch_normalization_1[0][0]      
__________________________________________________________________________________________________
conv2d_2 (Conv2D)               (None, 50, 48, 64)   18496       dropout_3[0][0]                  
__________________________________________________________________________________________________
batch_normalization_2 (BatchNor (None, 50, 48, 64)   256         conv2d_2[0][0]                   
__________________________________________________________________________________________________
dropout_4 (Dropout)             (None, 50, 48, 64)   0           batch_normalization_2[0][0]      
__________________________________________________________________________________________________
input_1 (InputLayer)            (None, 100, 34)      0                                            
__________________________________________________________________________________________________
conv2d_3 (Conv2D)               (None, 25, 24, 64)   36928       dropout_4[0][0]                  
__________________________________________________________________________________________________
bidirectional_1 (Bidirectional) (None, 100, 512)     595968      input_1[0][0]                    
__________________________________________________________________________________________________
batch_normalization_3 (BatchNor (None, 25, 24, 64)   256         conv2d_3[0][0]                   
__________________________________________________________________________________________________
dropout_1 (Dropout)             (None, 100, 512)     0           bidirectional_1[0][0]            
__________________________________________________________________________________________________
dropout_5 (Dropout)             (None, 25, 24, 64)   0           batch_normalization_3[0][0]      
__________________________________________________________________________________________________
bidirectional_2 (Bidirectional) (None, 100, 512)     1574912     dropout_1[0][0]                  
__________________________________________________________________________________________________
conv2d_4 (Conv2D)               (None, 13, 12, 128)  73856       dropout_5[0][0]                  
__________________________________________________________________________________________________
dropout_2 (Dropout)             (None, 100, 512)     0           bidirectional_2[0][0]            
__________________________________________________________________________________________________
batch_normalization_4 (BatchNor (None, 13, 12, 128)  512         conv2d_4[0][0]                   
__________________________________________________________________________________________________
AttentionDecoder (AttentionDeco (None, 100, 256)     1377792     dropout_2[0][0]                  
__________________________________________________________________________________________________
dropout_6 (Dropout)             (None, 13, 12, 128)  0           batch_normalization_4[0][0]      
__________________________________________________________________________________________________
flatten_1 (Flatten)             (None, 25600)        0           AttentionDecoder[0][0]           
__________________________________________________________________________________________________
flatten_2 (Flatten)             (None, 19968)        0           dropout_6[0][0]                  
__________________________________________________________________________________________________
dense_1 (Dense)                 (None, 256)          6553856     flatten_1[0][0]                  
__________________________________________________________________________________________________
dense_2 (Dense)                 (None, 256)          5112064     flatten_2[0][0]                  
__________________________________________________________________________________________________
concatenate_1 (Concatenate)     (None, 512)          0           dense_1[0][0]                    
                                                                 dense_2[0][0]                    
__________________________________________________________________________________________________
dense_3 (Dense)                 (None, 256)          131328      concatenate_1[0][0]              
__________________________________________________________________________________________________
dense_4 (Dense)                 (None, 4)            1028        dense_3[0][0]                    
==================================================================================================
Total params: 15,477,700
Trainable params: 15,477,124
Non-trainable params: 576
__________________________________________________________________________________________________
Train on 3454 samples, validate on 741 samples
Epoch 1/20

  64/3454 [..............................] - ETA: 6:10 - loss: 1.6790 - acc: 0.2344 - Top2Acc: 0.4688 - Top3Acc: 0.7500
…
