…
{'epochs': 30, 'batch_size': 32, 'train_val_split': [0.85, 0.15], 'model': 'models.speech_delta', 'emotion': ['ang', 'exc', 'neu', 'sad'], 'data_type': 'improvised', 'feature_type': 'mfcc', 'mode': 'dynamic'}
Training on speech_delta
Data type: improvised
Feature type: mfcc
Training data size: 2034
Testing data size: 625
creating features for speech...
improvised
mode dynamic
500
1000
1500
2000
2500
speech_features shape (2659, 100, 12, 3)
creating labels...
Y.shape:  (2659, 4)
inputs shape: (?, ?, 256)
_________________________________________________________________
Layer (type)                 Output Shape              Param #   
=================================================================
input_1 (InputLayer)         (None, 100, 12, 3)        0         
_________________________________________________________________
conv2d_1 (Conv2D)            (None, 100, 12, 128)      5888      
_________________________________________________________________
max_pooling2d_1 (MaxPooling2 (None, 50, 6, 128)        0         
_________________________________________________________________
dropout_1 (Dropout)          (None, 50, 6, 128)        0         
_________________________________________________________________
conv2d_2 (Conv2D)            (None, 50, 6, 256)        491776    
_________________________________________________________________
dropout_2 (Dropout)          (None, 50, 6, 256)        0         
_________________________________________________________________
conv2d_3 (Conv2D)            (None, 50, 6, 256)        983296    
_________________________________________________________________
dropout_3 (Dropout)          (None, 50, 6, 256)        0         
_________________________________________________________________
conv2d_4 (Conv2D)            (None, 50, 6, 256)        983296    
_________________________________________________________________
dropout_4 (Dropout)          (None, 50, 6, 256)        0         
_________________________________________________________________
conv2d_5 (Conv2D)            (None, 50, 6, 256)        983296    
_________________________________________________________________
dropout_5 (Dropout)          (None, 50, 6, 256)        0         
_________________________________________________________________
dense_1 (Dense)              (None, 50, 6, 512)        131584    
_________________________________________________________________
batch_normalization_1 (Batch (None, 50, 6, 512)        2048      
_________________________________________________________________
reshape_1 (Reshape)          (None, 100, 1536)         0         
_________________________________________________________________
lstm_1 (LSTM)                (None, 100, 256)          1836032   
_________________________________________________________________
dropout_6 (Dropout)          (None, 100, 256)          0         
_________________________________________________________________
lstm_2 (LSTM)                (None, 100, 256)          525312    
_________________________________________________________________
dropout_7 (Dropout)          (None, 100, 256)          0         
_________________________________________________________________
AttentionDecoder (AttentionD (None, 100, 128)          344832    
_________________________________________________________________
flatten_1 (Flatten)          (None, 12800)             0         
_________________________________________________________________
dense_2 (Dense)              (None, 512)               6554112   
_________________________________________________________________
batch_normalization_2 (Batch (None, 512)               2048      
_________________________________________________________________
dense_3 (Dense)              (None, 4)                 2052      
=================================================================
Total params: 12,845,572
Trainable params: 12,843,524
Non-trainable params: 2,048
_________________________________________________________________
class_weights_train_dict {0: 1.9709302325581395, 1: 1.039877300613497, 2: 0.6262315270935961, 3: 1.0705263157894738}
class counts for training data:
[258 489 812 475]
class_weights_test_dict {0: 5.040322580645161, 1: 0.8979885057471264, 2: 0.544425087108014, 3: 1.1748120300751879}
…
