…
{'epochs': 30, 'batch_size': 64, 'train_val_split': [0.85, 0.15], 'model': 'models.mocap_conv', 'emotion': ['ang', 'exc', 'neu', 'sad'], 'data_type': 'all', 'feature_type': 'all', 'mode': 'static'}
Training on mocap_conv
Data type: all
Feature type: all
Training data size: 3838
Testing data size: 1098
creating mocap data...
x_train_mocap.shape (4936, 200, 189, 1)
creating labels...
Y.shape:  (4936, 4)
_________________________________________________________________
Layer (type)                 Output Shape              Param #   
=================================================================
input_1 (InputLayer)         (None, 200, 189, 1)       0         
_________________________________________________________________
conv2d_1 (Conv2D)            (None, 100, 95, 32)       320       
_________________________________________________________________
batch_normalization_1 (Batch (None, 100, 95, 32)       128       
_________________________________________________________________
dropout_1 (Dropout)          (None, 100, 95, 32)       0         
_________________________________________________________________
conv2d_2 (Conv2D)            (None, 50, 48, 64)        18496     
_________________________________________________________________
batch_normalization_2 (Batch (None, 50, 48, 64)        256       
_________________________________________________________________
dropout_2 (Dropout)          (None, 50, 48, 64)        0         
_________________________________________________________________
conv2d_3 (Conv2D)            (None, 25, 24, 64)        36928     
_________________________________________________________________
batch_normalization_3 (Batch (None, 25, 24, 64)        256       
_________________________________________________________________
dropout_3 (Dropout)          (None, 25, 24, 64)        0         
_________________________________________________________________
conv2d_4 (Conv2D)            (None, 13, 12, 128)       73856     
_________________________________________________________________
batch_normalization_4 (Batch (None, 13, 12, 128)       512       
_________________________________________________________________
conv2d_5 (Conv2D)            (None, 7, 6, 128)         147584    
_________________________________________________________________
batch_normalization_5 (Batch (None, 7, 6, 128)         512       
_________________________________________________________________
dropout_4 (Dropout)          (None, 7, 6, 128)         0         
_________________________________________________________________
flatten_1 (Flatten)          (None, 5376)              0         
_________________________________________________________________
dense_1 (Dense)              (None, 4)                 21508     
=================================================================
Total params: 300,356
Trainable params: 299,524
Non-trainable params: 832
_________________________________________________________________
class_weights_train_dict {0: 1.0284030010718113, 1: 1.2931266846361187, 2: 0.7246978851963746, 3: 1.1436233611442193}
class counts for training data:
[ 933  742 1324  839]
class_weights_test_dict {0: 1.6147058823529412, 1: 0.9180602006688964, 2: 0.71484375, 3: 1.120408163265306}
…
