…
{'epochs': 30, 'batch_size': 64, 'train_val_split': [0.85, 0.15], 'model': 'models.mocap_conv', 'emotion': ['ang', 'exc', 'neu', 'sad'], 'data_type': 'improvised', 'feature_type': 'all', 'mode': 'static'}
Training on mocap_conv
Data type: improvised
Feature type: all
Training data size: 2034
Testing data size: 625
creating mocap data...
x_train_mocap.shape (2659, 200, 189, 1)
creating labels...
Y.shape:  (2659, 4)
_________________________________________________________________
Layer (type)                 Output Shape              Param #   
=================================================================
input_1 (InputLayer)         (None, 200, 189, 1)       0         
_________________________________________________________________
conv2d_1 (Conv2D)            (None, 100, 95, 32)       320       
_________________________________________________________________
batch_normalization_1 (Batch (None, 100, 95, 32)       128       
_________________________________________________________________
dropout_1 (Dropout)          (None, 100, 95, 32)       0         
_________________________________________________________________
conv2d_2 (Conv2D)            (None, 50, 48, 64)        18496     
_________________________________________________________________
batch_normalization_2 (Batch (None, 50, 48, 64)        256       
_________________________________________________________________
dropout_2 (Dropout)          (None, 50, 48, 64)        0         
_________________________________________________________________
conv2d_3 (Conv2D)            (None, 25, 24, 64)        36928     
_________________________________________________________________
batch_normalization_3 (Batch (None, 25, 24, 64)        256       
_________________________________________________________________
dropout_3 (Dropout)          (None, 25, 24, 64)        0         
_________________________________________________________________
conv2d_4 (Conv2D)            (None, 13, 12, 128)       73856     
_________________________________________________________________
batch_normalization_4 (Batch (None, 13, 12, 128)       512       
_________________________________________________________________
conv2d_5 (Conv2D)            (None, 7, 6, 128)         147584    
_________________________________________________________________
batch_normalization_5 (Batch (None, 7, 6, 128)         512       
_________________________________________________________________
dropout_4 (Dropout)          (None, 7, 6, 128)         0         
_________________________________________________________________
flatten_1 (Flatten)          (None, 5376)              0         
_________________________________________________________________
dense_1 (Dense)              (None, 4)                 21508     
=================================================================
Total params: 300,356
Trainable params: 299,524
Non-trainable params: 832
_________________________________________________________________
class_weights_train_dict {0: 1.9709302325581395, 1: 1.039877300613497, 2: 0.6262315270935961, 3: 1.0705263157894738}
class counts for training data:
[258 489 812 475]
class_weights_test_dict {0: 5.040322580645161, 1: 0.8979885057471264, 2: 0.544425087108014, 3: 1.1748120300751879}
…
