…
{'epochs': 20, 'batch_size': 32, 'train_val_split': [0.85, 0.15], 'model': 'models.speech_delta', 'emotion': ['ang', 'exc', 'neu', 'sad'], 'data_type': 'improvised', 'feature_type': 'mfcc'}
Training on speech_delta
Data type: improvised
Feature type: mfcc
Training data size: 2034
Testing data size: 625
creating features for speech...
improvised
500
1000
1500
2000
2500
speech_features shape (2659, 100, 12, 3)
creating labels...
Y.shape:  (2659, 4)
inputs shape: (?, ?, 128)
_________________________________________________________________
Layer (type)                 Output Shape              Param #   
=================================================================
input_1 (InputLayer)         (None, 100, 12, 3)        0         
_________________________________________________________________
conv2d_1 (Conv2D)            (None, 100, 12, 128)      5888      
_________________________________________________________________
max_pooling2d_1 (MaxPooling2 (None, 50, 6, 128)        0         
_________________________________________________________________
dropout_1 (Dropout)          (None, 50, 6, 128)        0         
_________________________________________________________________
conv2d_2 (Conv2D)            (None, 50, 6, 256)        491776    
_________________________________________________________________
dropout_2 (Dropout)          (None, 50, 6, 256)        0         
_________________________________________________________________
conv2d_3 (Conv2D)            (None, 50, 6, 256)        983296    
_________________________________________________________________
dropout_3 (Dropout)          (None, 50, 6, 256)        0         
_________________________________________________________________
conv2d_4 (Conv2D)            (None, 50, 6, 256)        983296    
_________________________________________________________________
dropout_4 (Dropout)          (None, 50, 6, 256)        0         
_________________________________________________________________
conv2d_5 (Conv2D)            (None, 50, 6, 256)        983296    
_________________________________________________________________
dropout_5 (Dropout)          (None, 50, 6, 256)        0         
_________________________________________________________________
reshape_1 (Reshape)          (None, 120, 640)          0         
_________________________________________________________________
bidirectional_1 (Bidirection (None, 120, 256)          787456    
_________________________________________________________________
dropout_6 (Dropout)          (None, 120, 256)          0         
_________________________________________________________________
lstm_2 (LSTM)                (None, 120, 128)          197120    
_________________________________________________________________
dropout_7 (Dropout)          (None, 120, 128)          0         
_________________________________________________________________
AttentionDecoder (AttentionD (None, 120, 128)          246528    
_________________________________________________________________
flatten_1 (Flatten)          (None, 15360)             0         
_________________________________________________________________
dense_1 (Dense)              (None, 512)               7864832   
_________________________________________________________________
dense_2 (Dense)              (None, 4)                 2052      
=================================================================
Total params: 12,545,540
Trainable params: 12,545,540
Non-trainable params: 0
_________________________________________________________________
class_weights_dict {0: 1.9709302325581395, 1: 1.039877300613497, 2: 0.6262315270935961, 3: 1.0705263157894738}
Train on 1728 samples, validate on 306 samples
Epoch 1/20

  32/1728 [..............................] - ETA: 5:04 - loss: 1.4165 - acc: 0.4062 - Top2Acc: 0.6875 - Top3Acc: 0.8750
…
