…
{'epochs': 20, 'batch_size': 32, 'train_val_test_split': [0.7, 0.15, 0.15], 'split_seed': 42, 'model': 'models.speech_delta', 'emotion': ['ang', 'exc', 'neu', 'sad'], 'data_type': 'improvised'}
creating features for speech...
improvised
500
1000
1500
2000
2500
x_train_speech shape:  (2659, 100, 34)
deltas shape:  (2659, 100, 34)
deltasdeltas shape:  (2659, 100, 34)
creating labels...
Y.shape:  (2659, 4)
inputs shape: (?, ?, 256)
_________________________________________________________________
Layer (type)                 Output Shape              Param #   
=================================================================
input_1 (InputLayer)         (None, 100, 34, 3)        0         
_________________________________________________________________
conv2d_1 (Conv2D)            (None, 100, 34, 128)      5888      
_________________________________________________________________
batch_normalization_1 (Batch (None, 100, 34, 128)      512       
_________________________________________________________________
max_pooling2d_1 (MaxPooling2 (None, 50, 17, 128)       0         
_________________________________________________________________
dropout_1 (Dropout)          (None, 50, 17, 128)       0         
_________________________________________________________________
conv2d_2 (Conv2D)            (None, 50, 17, 256)       491776    
_________________________________________________________________
batch_normalization_2 (Batch (None, 50, 17, 256)       1024      
_________________________________________________________________
dropout_2 (Dropout)          (None, 50, 17, 256)       0         
_________________________________________________________________
conv2d_3 (Conv2D)            (None, 50, 17, 256)       983296    
_________________________________________________________________
batch_normalization_3 (Batch (None, 50, 17, 256)       1024      
_________________________________________________________________
dropout_3 (Dropout)          (None, 50, 17, 256)       0         
_________________________________________________________________
reshape_1 (Reshape)          (None, 340, 640)          0         
_________________________________________________________________
bidirectional_1 (Bidirection (None, 340, 256)          787456    
_________________________________________________________________
dropout_4 (Dropout)          (None, 340, 256)          0         
_________________________________________________________________
bidirectional_2 (Bidirection (None, 340, 256)          394240    
_________________________________________________________________
dropout_5 (Dropout)          (None, 340, 256)          0         
_________________________________________________________________
AttentionDecoder (AttentionD (None, 340, 256)          984576    
_________________________________________________________________
flatten_1 (Flatten)          (None, 87040)             0         
_________________________________________________________________
dense_1 (Dense)              (None, 4)                 348164    
=================================================================
Total params: 3,997,956
Trainable params: 3,996,676
Non-trainable params: 1,280
_________________________________________________________________
xtrain (2260, 100, 34, 3)
ytrain (2260, 4)
xtest (399, 100, 34, 3)
ytest (399, 4)
class_weights_dict {0: 2.278225806451613, 1: 1.0089285714285714, 2: 0.6062231759656652, 3: 1.0865384615384615}
…
