…
{'epochs': 30, 'batch_size': 64, 'train_val_split': [0.85, 0.15], 'model': 'models.speech_lstm_attention', 'emotion': ['ang', 'exc', 'neu', 'sad'], 'data_type': 'scripted', 'feature_type': 'all', 'mode': 'static'}
Training on speech_lstm_attention
Data type: scripted
Feature type: all
Training data size: 1804
Testing data size: 473
creating features for speech...
scripted
mode static
500
1000
1500
2000
speech_features shape (2277, 100, 34)
creating labels...
Y.shape:  (2277, 4)
inputs shape: (?, ?, 256)
_________________________________________________________________
Layer (type)                 Output Shape              Param #   
=================================================================
input_1 (InputLayer)         (None, 100, 34)           0         
_________________________________________________________________
bidirectional_1 (Bidirection (None, 100, 512)          595968    
_________________________________________________________________
dropout_1 (Dropout)          (None, 100, 512)          0         
_________________________________________________________________
lstm_2 (LSTM)                (None, 100, 256)          787456    
_________________________________________________________________
dropout_2 (Dropout)          (None, 100, 256)          0         
_________________________________________________________________
AttentionDecoder (AttentionD (None, 100, 256)          984576    
_________________________________________________________________
flatten_1 (Flatten)          (None, 25600)             0         
_________________________________________________________________
dense_1 (Dense)              (None, 4)                 102404    
=================================================================
Total params: 2,470,404
Trainable params: 2,470,404
Non-trainable params: 0
_________________________________________________________________
class_weights_train_dict {0: 0.6681481481481482, 1: 1.7826086956521738, 2: 0.880859375, 3: 1.239010989010989}
class counts for training data:
[675 253 512 364]
class_weights_test_dict {0: 0.8507194244604317, 1: 0.946, 2: 1.2190721649484537, 3: 1.0558035714285714}
…
