…
{'epochs': 30, 'batch_size': 64, 'train_val_split': [0.85, 0.15], 'model': 'models.speech_lstm_attention', 'emotion': ['ang', 'exc', 'neu', 'sad'], 'data_type': 'improvised', 'feature_type': 'all', 'mode': 'static'}
Training on speech_lstm_attention
Data type: improvised
Feature type: all
Training data size: 2034
Testing data size: 625
creating features for speech...
improvised
mode static
500
1000
1500
2000
2500
speech_features shape (2659, 100, 34)
creating labels...
Y.shape:  (2659, 4)
inputs shape: (?, ?, 256)
_________________________________________________________________
Layer (type)                 Output Shape              Param #   
=================================================================
input_1 (InputLayer)         (None, 100, 34)           0         
_________________________________________________________________
bidirectional_1 (Bidirection (None, 100, 512)          595968    
_________________________________________________________________
dropout_1 (Dropout)          (None, 100, 512)          0         
_________________________________________________________________
lstm_2 (LSTM)                (None, 100, 256)          787456    
_________________________________________________________________
dropout_2 (Dropout)          (None, 100, 256)          0         
_________________________________________________________________
AttentionDecoder (AttentionD (None, 100, 256)          984576    
_________________________________________________________________
flatten_1 (Flatten)          (None, 25600)             0         
_________________________________________________________________
dense_1 (Dense)              (None, 4)                 102404    
=================================================================
Total params: 2,470,404
Trainable params: 2,470,404
Non-trainable params: 0
_________________________________________________________________
class_weights_train_dict {0: 1.9709302325581395, 1: 1.039877300613497, 2: 0.6262315270935961, 3: 1.0705263157894738}
class counts for training data:
[258 489 812 475]
class_weights_test_dict {0: 5.040322580645161, 1: 0.8979885057471264, 2: 0.544425087108014, 3: 1.1748120300751879}
…
