…
{'epochs': 30, 'batch_size': 32, 'train_val_split': [0.85, 0.15], 'model': 'models.speech_delta', 'emotion': ['ang', 'exc', 'neu', 'sad'], 'data_type': 'scripted', 'feature_type': 'mfcc', 'mode': 'dynamic'}
Training on speech_delta
Data type: scripted
Feature type: mfcc
Training data size: 1804
Testing data size: 473
creating features for speech...
scripted
mode dynamic
500
1000
1500
2000
speech_features shape (2277, 100, 12, 3)
creating labels...
Y.shape:  (2277, 4)
inputs shape: (?, ?, 256)
_________________________________________________________________
Layer (type)                 Output Shape              Param #   
=================================================================
input_1 (InputLayer)         (None, 100, 12, 3)        0         
_________________________________________________________________
conv2d_1 (Conv2D)            (None, 100, 12, 128)      5888      
_________________________________________________________________
max_pooling2d_1 (MaxPooling2 (None, 50, 6, 128)        0         
_________________________________________________________________
dropout_1 (Dropout)          (None, 50, 6, 128)        0         
_________________________________________________________________
conv2d_2 (Conv2D)            (None, 50, 6, 256)        491776    
_________________________________________________________________
dropout_2 (Dropout)          (None, 50, 6, 256)        0         
_________________________________________________________________
conv2d_3 (Conv2D)            (None, 50, 6, 256)        983296    
_________________________________________________________________
dropout_3 (Dropout)          (None, 50, 6, 256)        0         
_________________________________________________________________
conv2d_4 (Conv2D)            (None, 50, 6, 256)        983296    
_________________________________________________________________
dropout_4 (Dropout)          (None, 50, 6, 256)        0         
_________________________________________________________________
conv2d_5 (Conv2D)            (None, 50, 6, 256)        983296    
_________________________________________________________________
dropout_5 (Dropout)          (None, 50, 6, 256)        0         
_________________________________________________________________
dense_1 (Dense)              (None, 50, 6, 512)        131584    
_________________________________________________________________
batch_normalization_1 (Batch (None, 50, 6, 512)        2048      
_________________________________________________________________
reshape_1 (Reshape)          (None, 100, 1536)         0         
_________________________________________________________________
lstm_1 (LSTM)                (None, 100, 256)          1836032   
_________________________________________________________________
dropout_6 (Dropout)          (None, 100, 256)          0         
_________________________________________________________________
lstm_2 (LSTM)                (None, 100, 256)          525312    
_________________________________________________________________
dropout_7 (Dropout)          (None, 100, 256)          0         
_________________________________________________________________
AttentionDecoder (AttentionD (None, 100, 128)          344832    
_________________________________________________________________
flatten_1 (Flatten)          (None, 12800)             0         
_________________________________________________________________
dense_2 (Dense)              (None, 512)               6554112   
_________________________________________________________________
batch_normalization_2 (Batch (None, 512)               2048      
_________________________________________________________________
dense_3 (Dense)              (None, 4)                 2052      
=================================================================
Total params: 12,845,572
Trainable params: 12,843,524
Non-trainable params: 2,048
_________________________________________________________________
class_weights_train_dict {0: 0.6681481481481482, 1: 1.7826086956521738, 2: 0.880859375, 3: 1.239010989010989}
class counts for training data:
[675 253 512 364]
class_weights_test_dict {0: 0.8507194244604317, 1: 0.946, 2: 1.2190721649484537, 3: 1.0558035714285714}
…
