…
{'epochs': 30, 'batch_size': 64, 'train_val_split': [0.85, 0.15], 'model': 'models.speech_lstm_attention', 'emotion': ['ang', 'exc', 'neu', 'sad'], 'data_type': 'all', 'feature_type': 'all', 'mode': 'static'}
Training on speech_lstm_attention
Data type: all
Feature type: all
Training data size: 3838
Testing data size: 1098
creating features for speech...
all
mode static
500
1000
1500
2000
2500
3000
3500
4000
4500
speech_features shape (4936, 100, 34)
creating labels...
Y.shape:  (4936, 4)
inputs shape: (?, ?, 256)
_________________________________________________________________
Layer (type)                 Output Shape              Param #   
=================================================================
input_1 (InputLayer)         (None, 100, 34)           0         
_________________________________________________________________
bidirectional_1 (Bidirection (None, 100, 512)          595968    
_________________________________________________________________
dropout_1 (Dropout)          (None, 100, 512)          0         
_________________________________________________________________
lstm_2 (LSTM)                (None, 100, 256)          787456    
_________________________________________________________________
dropout_2 (Dropout)          (None, 100, 256)          0         
_________________________________________________________________
AttentionDecoder (AttentionD (None, 100, 256)          984576    
_________________________________________________________________
flatten_1 (Flatten)          (None, 25600)             0         
_________________________________________________________________
dense_1 (Dense)              (None, 4)                 102404    
=================================================================
Total params: 2,470,404
Trainable params: 2,470,404
Non-trainable params: 0
_________________________________________________________________
class_weights_train_dict {0: 1.0284030010718113, 1: 1.2931266846361187, 2: 0.7246978851963746, 3: 1.1436233611442193}
class counts for training data:
[ 933  742 1324  839]
class_weights_test_dict {0: 1.6147058823529412, 1: 0.9180602006688964, 2: 0.71484375, 3: 1.120408163265306}
…
