…
model: models.text_lstm
Training on text_lstm
Data type: all
Feature type: all
Training data size: 3838
Testing data size: 1098
getting trarnscription...
embedding...
Found 2736 unique tokens
/net/projects/scratch/summer/valid_until_31_January_2019/juhuang/nlp/HearYou2.0/datasets/glove.42B.300d.txt
G Word embeddings: 1917495
G Null word embeddings: 90
creating labels...
Y.shape:  (4936, 4)
_________________________________________________________________
Layer (type)                 Output Shape              Param #   
=================================================================
input_1 (InputLayer)         (None, 500)               0         
_________________________________________________________________
embedding_1 (Embedding)      (None, 500, 300)          821100    
_________________________________________________________________
bidirectional_1 (Bidirection (None, 500, 512)          1140736   
_________________________________________________________________
dropout_1 (Dropout)          (None, 500, 512)          0         
_________________________________________________________________
bidirectional_2 (Bidirection (None, 512)               1574912   
_________________________________________________________________
dropout_2 (Dropout)          (None, 512)               0         
_________________________________________________________________
dense_1 (Dense)              (None, 256)               131328    
_________________________________________________________________
dense_2 (Dense)              (None, 4)                 1028      
=================================================================
Total params: 3,669,104
Trainable params: 3,669,104
Non-trainable params: 0
_________________________________________________________________
class_weights_train_dict {0: 1.0284030010718113, 1: 1.2931266846361187, 2: 0.7246978851963746, 3: 1.1436233611442193}
class counts for training data:
[ 933  742 1324  839]
class_weights_test_dict {0: 1.6147058823529412, 1: 0.9180602006688964, 2: 0.71484375, 3: 1.120408163265306}
…
