…
Training on text_lstm
Data type: improvised
Feature type: all
Training data size: 2034
Testing data size: 625
getting trarnscription...
embedding...
Found 2159 unique tokens
/net/projects/scratch/summer/valid_until_31_January_2019/juhuang/nlp/HearYou2.0/datasets/glove.42B.300d.txt
G Word embeddings: 1917495
G Null word embeddings: 70
creating labels...
Y.shape:  (2659, 4)
_________________________________________________________________
Layer (type)                 Output Shape              Param #   
=================================================================
input_1 (InputLayer)         (None, 500)               0         
_________________________________________________________________
embedding_1 (Embedding)      (None, 500, 300)          648000    
_________________________________________________________________
bidirectional_1 (Bidirection (None, 500, 512)          1140736   
_________________________________________________________________
dropout_1 (Dropout)          (None, 500, 512)          0         
_________________________________________________________________
bidirectional_2 (Bidirection (None, 512)               1574912   
_________________________________________________________________
dropout_2 (Dropout)          (None, 512)               0         
_________________________________________________________________
dense_1 (Dense)              (None, 256)               131328    
_________________________________________________________________
dense_2 (Dense)              (None, 4)                 1028      
=================================================================
Total params: 3,496,004
Trainable params: 3,496,004
Non-trainable params: 0
_________________________________________________________________
class_weights_train_dict {0: 1.9709302325581395, 1: 1.039877300613497, 2: 0.6262315270935961, 3: 1.0705263157894738}
class counts for training data:
[258 489 812 475]
class_weights_test_dict {0: 5.040322580645161, 1: 0.8979885057471264, 2: 0.544425087108014, 3: 1.1748120300751879}
…
