…
Training on text_lstm
Data type: scripted
Feature type: all
Training data size: 1804
Testing data size: 473
getting trarnscription...
embedding...
Found 1323 unique tokens
/net/projects/scratch/summer/valid_until_31_January_2019/juhuang/nlp/HearYou2.0/datasets/glove.42B.300d.txt
G Word embeddings: 1917495
G Null word embeddings: 51
creating labels...
Y.shape:  (2277, 4)
_________________________________________________________________
Layer (type)                 Output Shape              Param #   
=================================================================
input_1 (InputLayer)         (None, 500)               0         
_________________________________________________________________
embedding_1 (Embedding)      (None, 500, 300)          397200    
_________________________________________________________________
bidirectional_1 (Bidirection (None, 500, 512)          1140736   
_________________________________________________________________
dropout_1 (Dropout)          (None, 500, 512)          0         
_________________________________________________________________
bidirectional_2 (Bidirection (None, 512)               1574912   
_________________________________________________________________
dropout_2 (Dropout)          (None, 512)               0         
_________________________________________________________________
dense_1 (Dense)              (None, 256)               131328    
_________________________________________________________________
dense_2 (Dense)              (None, 4)                 1028      
=================================================================
Total params: 3,245,204
Trainable params: 3,245,204
Non-trainable params: 0
_________________________________________________________________
class_weights_train_dict {0: 0.6681481481481482, 1: 1.7826086956521738, 2: 0.880859375, 3: 1.239010989010989}
class counts for training data:
[675 253 512 364]
class_weights_test_dict {0: 0.8507194244604317, 1: 0.946, 2: 1.2190721649484537, 3: 1.0558035714285714}
…
