…
Training on text_lstm
Data type: all
Feature type: all
Training data size: 3838
Testing data size: 1098
getting trarnscription...
embedding...
Found 2736 unique tokens
/net/store/scratch/even/valid_until_31_aug_2018/juhuang/multimodal/iemocap/HearYou2.0/datasets/glove.42B.300d.txt
G Word embeddings: 1917495
G Null word embeddings: 90
creating labels...
Y.shape:  (4936, 4)
_________________________________________________________________
Layer (type)                 Output Shape              Param #   
=================================================================
input_1 (InputLayer)         (None, 500)               0         
_________________________________________________________________
embedding_1 (Embedding)      (None, 500, 300)          821100    
_________________________________________________________________
bidirectional_1 (Bidirection (None, 500, 512)          1140736   
_________________________________________________________________
dropout_1 (Dropout)          (None, 500, 512)          0         
_________________________________________________________________
bidirectional_2 (Bidirection (None, 512)               1574912   
_________________________________________________________________
dropout_2 (Dropout)          (None, 512)               0         
_________________________________________________________________
dense_1 (Dense)              (None, 4)                 2052      
=================================================================
Total params: 3,538,800
Trainable params: 3,538,800
Non-trainable params: 0
_________________________________________________________________
class_weights_dict {0: 1.0284030010718113, 1: 1.2931266846361187, 2: 0.7246978851963746, 3: 1.1436233611442193}
Train on 3262 samples, validate on 576 samples
Epoch 1/20

  64/3262 [..............................] - ETA: 6:04 - loss: 1.3599 - acc: 0.2031 - Top2Acc: 0.5156 - Top3Acc: 0.7812
…
