…
G Null word embeddings: 70
creating features for speech...
improvised
500
1000
1500
2000
2500
speech_features shape (2659, 100, 34, 3)
creating mocap data...
x_train_mocap.shape (2659, 200, 189, 1)
creating labels...
Y.shape:  (2659, 4)
inputs shape: (?, ?, 128)
inputs shape: (?, ?, 256)
__________________________________________________________________________________________________
Layer (type)                    Output Shape         Param #     Connected to                     
==================================================================================================
input_2 (InputLayer)            (None, 100, 34, 3)   0                                            
__________________________________________________________________________________________________
conv2d_1 (Conv2D)               (None, 100, 34, 128) 5888        input_2[0][0]                    
__________________________________________________________________________________________________
max_pooling2d_1 (MaxPooling2D)  (None, 50, 17, 128)  0           conv2d_1[0][0]                   
__________________________________________________________________________________________________
dropout_3 (Dropout)             (None, 50, 17, 128)  0           max_pooling2d_1[0][0]            
__________________________________________________________________________________________________
conv2d_2 (Conv2D)               (None, 50, 17, 256)  491776      dropout_3[0][0]                  
__________________________________________________________________________________________________
dropout_4 (Dropout)             (None, 50, 17, 256)  0           conv2d_2[0][0]                   
__________________________________________________________________________________________________
conv2d_3 (Conv2D)               (None, 50, 17, 256)  983296      dropout_4[0][0]                  
__________________________________________________________________________________________________
dropout_5 (Dropout)             (None, 50, 17, 256)  0           conv2d_3[0][0]                   
__________________________________________________________________________________________________
input_3 (InputLayer)            (None, 200, 189, 1)  0                                            
__________________________________________________________________________________________________
conv2d_4 (Conv2D)               (None, 50, 17, 256)  983296      dropout_5[0][0]                  
__________________________________________________________________________________________________
conv2d_6 (Conv2D)               (None, 100, 95, 32)  320         input_3[0][0]                    
__________________________________________________________________________________________________
dropout_6 (Dropout)             (None, 50, 17, 256)  0           conv2d_4[0][0]                   
__________________________________________________________________________________________________
batch_normalization_2 (BatchNor (None, 100, 95, 32)  128         conv2d_6[0][0]                   
__________________________________________________________________________________________________
conv2d_5 (Conv2D)               (None, 50, 17, 256)  983296      dropout_6[0][0]                  
__________________________________________________________________________________________________
dropout_10 (Dropout)            (None, 100, 95, 32)  0           batch_normalization_2[0][0]      
__________________________________________________________________________________________________
dropout_7 (Dropout)             (None, 50, 17, 256)  0           conv2d_5[0][0]                   
__________________________________________________________________________________________________
conv2d_7 (Conv2D)               (None, 50, 48, 64)   18496       dropout_10[0][0]                 
__________________________________________________________________________________________________
dense_2 (Dense)                 (None, 50, 17, 512)  131584      dropout_7[0][0]                  
__________________________________________________________________________________________________
batch_normalization_3 (BatchNor (None, 50, 48, 64)   256         conv2d_7[0][0]                   
__________________________________________________________________________________________________
input_1 (InputLayer)            (None, 500)          0                                            
__________________________________________________________________________________________________
batch_normalization_1 (BatchNor (None, 50, 17, 512)  2048        dense_2[0][0]                    
__________________________________________________________________________________________________
dropout_11 (Dropout)            (None, 50, 48, 64)   0           batch_normalization_3[0][0]      
__________________________________________________________________________________________________
embedding_1 (Embedding)         (None, 500, 300)     648000      input_1[0][0]                    
__________________________________________________________________________________________________
reshape_1 (Reshape)             (None, 100, 4352)    0           batch_normalization_1[0][0]      
__________________________________________________________________________________________________
conv2d_8 (Conv2D)               (None, 25, 24, 64)   36928       dropout_11[0][0]                 
__________________________________________________________________________________________________
bidirectional_1 (Bidirectional) (None, 500, 256)     439296      embedding_1[0][0]                
__________________________________________________________________________________________________
bidirectional_2 (Bidirectional) (None, 100, 512)     9439232     reshape_1[0][0]                  
__________________________________________________________________________________________________
batch_normalization_4 (BatchNor (None, 25, 24, 64)   256         conv2d_8[0][0]                   
__________________________________________________________________________________________________
dropout_1 (Dropout)             (None, 500, 256)     0           bidirectional_1[0][0]            
__________________________________________________________________________________________________
dropout_8 (Dropout)             (None, 100, 512)     0           bidirectional_2[0][0]            
__________________________________________________________________________________________________
dropout_12 (Dropout)            (None, 25, 24, 64)   0           batch_normalization_4[0][0]      
__________________________________________________________________________________________________
lstm_2 (LSTM)                   (None, 500, 128)     197120      dropout_1[0][0]                  
__________________________________________________________________________________________________
lstm_4 (LSTM)                   (None, 100, 256)     787456      dropout_8[0][0]                  
__________________________________________________________________________________________________
conv2d_9 (Conv2D)               (None, 13, 12, 128)  73856       dropout_12[0][0]                 
__________________________________________________________________________________________________
dropout_2 (Dropout)             (None, 500, 128)     0           lstm_2[0][0]                     
__________________________________________________________________________________________________
dropout_9 (Dropout)             (None, 100, 256)     0           lstm_4[0][0]                     
__________________________________________________________________________________________________
batch_normalization_5 (BatchNor (None, 13, 12, 128)  512         conv2d_9[0][0]                   
__________________________________________________________________________________________________
AttentionDecoder_tx (AttentionD (None, 500, 128)     246528      dropout_2[0][0]                  
__________________________________________________________________________________________________
AttentionDecoder_sp (AttentionD (None, 100, 256)     984576      dropout_9[0][0]                  
__________________________________________________________________________________________________
dropout_13 (Dropout)            (None, 13, 12, 128)  0           batch_normalization_5[0][0]      
__________________________________________________________________________________________________
flatten_1 (Flatten)             (None, 64000)        0           AttentionDecoder_tx[0][0]        
__________________________________________________________________________________________________
flatten_2 (Flatten)             (None, 25600)        0           AttentionDecoder_sp[0][0]        
__________________________________________________________________________________________________
flatten_3 (Flatten)             (None, 19968)        0           dropout_13[0][0]                 
__________________________________________________________________________________________________
dense_1 (Dense)                 (None, 256)          16384256    flatten_1[0][0]                  
__________________________________________________________________________________________________
dense_3 (Dense)                 (None, 256)          6553856     flatten_2[0][0]                  
__________________________________________________________________________________________________
dense_4 (Dense)                 (None, 256)          5112064     flatten_3[0][0]                  
__________________________________________________________________________________________________
concatenate_1 (Concatenate)     (None, 768)          0           dense_1[0][0]                    
                                                                 dense_3[0][0]                    
                                                                 dense_4[0][0]                    
__________________________________________________________________________________________________
dense_5 (Dense)                 (None, 256)          196864      concatenate_1[0][0]              
__________________________________________________________________________________________________
dense_6 (Dense)                 (None, 4)            1028        dense_5[0][0]                    
==================================================================================================
Total params: 44,702,212
Trainable params: 44,700,612
Non-trainable params: 1,600
__________________________________________________________________________________________________
class_weights_dict {0: 1.9709302325581395, 1: 1.039877300613497, 2: 0.6262315270935961, 3: 1.0705263157894738}
…
