…
Training data size: 2034
Testing data size: 625
creating features for speech...
improvised
500
1000
1500
2000
2500
speech_features shape (2659, 100, 12, 3)
creating mocap data...
x_train_mocap.shape (2659, 200, 189, 1)
creating labels...
Y.shape:  (2659, 4)
inputs shape: (?, ?, 512)
__________________________________________________________________________________________________
Layer (type)                    Output Shape         Param #     Connected to                     
==================================================================================================
input_1 (InputLayer)            (None, 100, 12, 3)   0                                            
__________________________________________________________________________________________________
conv2d_1 (Conv2D)               (None, 100, 12, 128) 5888        input_1[0][0]                    
__________________________________________________________________________________________________
max_pooling2d_1 (MaxPooling2D)  (None, 50, 6, 128)   0           conv2d_1[0][0]                   
__________________________________________________________________________________________________
dropout_1 (Dropout)             (None, 50, 6, 128)   0           max_pooling2d_1[0][0]            
__________________________________________________________________________________________________
conv2d_2 (Conv2D)               (None, 50, 6, 256)   491776      dropout_1[0][0]                  
__________________________________________________________________________________________________
dropout_2 (Dropout)             (None, 50, 6, 256)   0           conv2d_2[0][0]                   
__________________________________________________________________________________________________
conv2d_3 (Conv2D)               (None, 50, 6, 256)   983296      dropout_2[0][0]                  
__________________________________________________________________________________________________
dropout_3 (Dropout)             (None, 50, 6, 256)   0           conv2d_3[0][0]                   
__________________________________________________________________________________________________
input_2 (InputLayer)            (None, 200, 189, 1)  0                                            
__________________________________________________________________________________________________
conv2d_4 (Conv2D)               (None, 50, 6, 256)   983296      dropout_3[0][0]                  
__________________________________________________________________________________________________
conv2d_6 (Conv2D)               (None, 100, 95, 32)  320         input_2[0][0]                    
__________________________________________________________________________________________________
dropout_4 (Dropout)             (None, 50, 6, 256)   0           conv2d_4[0][0]                   
__________________________________________________________________________________________________
batch_normalization_2 (BatchNor (None, 100, 95, 32)  128         conv2d_6[0][0]                   
__________________________________________________________________________________________________
conv2d_5 (Conv2D)               (None, 50, 6, 256)   983296      dropout_4[0][0]                  
__________________________________________________________________________________________________
dropout_8 (Dropout)             (None, 100, 95, 32)  0           batch_normalization_2[0][0]      
__________________________________________________________________________________________________
dropout_5 (Dropout)             (None, 50, 6, 256)   0           conv2d_5[0][0]                   
__________________________________________________________________________________________________
conv2d_7 (Conv2D)               (None, 50, 48, 64)   18496       dropout_8[0][0]                  
__________________________________________________________________________________________________
dense_1 (Dense)                 (None, 50, 6, 512)   131584      dropout_5[0][0]                  
__________________________________________________________________________________________________
batch_normalization_3 (BatchNor (None, 50, 48, 64)   256         conv2d_7[0][0]                   
__________________________________________________________________________________________________
batch_normalization_1 (BatchNor (None, 50, 6, 512)   2048        dense_1[0][0]                    
__________________________________________________________________________________________________
dropout_9 (Dropout)             (None, 50, 48, 64)   0           batch_normalization_3[0][0]      
__________________________________________________________________________________________________
reshape_1 (Reshape)             (None, 100, 1536)    0           batch_normalization_1[0][0]      
__________________________________________________________________________________________________
conv2d_8 (Conv2D)               (None, 25, 24, 64)   36928       dropout_9[0][0]                  
__________________________________________________________________________________________________
bidirectional_1 (Bidirectional) (None, 100, 512)     3672064     reshape_1[0][0]                  
__________________________________________________________________________________________________
batch_normalization_4 (BatchNor (None, 25, 24, 64)   256         conv2d_8[0][0]                   
__________________________________________________________________________________________________
dropout_6 (Dropout)             (None, 100, 512)     0           bidirectional_1[0][0]            
__________________________________________________________________________________________________
dropout_10 (Dropout)            (None, 25, 24, 64)   0           batch_normalization_4[0][0]      
__________________________________________________________________________________________________
bidirectional_2 (Bidirectional) (None, 100, 512)     1574912     dropout_6[0][0]                  
__________________________________________________________________________________________________
conv2d_9 (Conv2D)               (None, 13, 12, 128)  73856       dropout_10[0][0]                 
__________________________________________________________________________________________________
dropout_7 (Dropout)             (None, 100, 512)     0           bidirectional_2[0][0]            
__________________________________________________________________________________________________
batch_normalization_5 (BatchNor (None, 13, 12, 128)  512         conv2d_9[0][0]                   
__________________________________________________________________________________________________
AttentionDecoder (AttentionDeco (None, 100, 256)     1377792     dropout_7[0][0]                  
__________________________________________________________________________________________________
dropout_11 (Dropout)            (None, 13, 12, 128)  0           batch_normalization_5[0][0]      
__________________________________________________________________________________________________
flatten_1 (Flatten)             (None, 25600)        0           AttentionDecoder[0][0]           
__________________________________________________________________________________________________
flatten_2 (Flatten)             (None, 19968)        0           dropout_11[0][0]                 
__________________________________________________________________________________________________
dense_2 (Dense)                 (None, 256)          6553856     flatten_1[0][0]                  
__________________________________________________________________________________________________
dense_3 (Dense)                 (None, 256)          5112064     flatten_2[0][0]                  
__________________________________________________________________________________________________
concatenate_1 (Concatenate)     (None, 512)          0           dense_2[0][0]                    
                                                                 dense_3[0][0]                    
__________________________________________________________________________________________________
dense_4 (Dense)                 (None, 256)          131328      concatenate_1[0][0]              
__________________________________________________________________________________________________
dense_5 (Dense)                 (None, 4)            1028        dense_4[0][0]                    
==================================================================================================
Total params: 22,134,980
Trainable params: 22,133,380
Non-trainable params: 1,600
__________________________________________________________________________________________________
class_weights_dict {0: 1.9709302325581395, 1: 1.039877300613497, 2: 0.6262315270935961, 3: 1.0705263157894738}
…
