…
{'epochs': 30, 'batch_size': 32, 'train_val_split': [0.85, 0.15], 'model': 'models.speech_delta', 'emotion': ['ang', 'exc', 'neu', 'sad'], 'data_type': 'scripted', 'feature_type': 'all'}
Training on speech_delta
Data type: scripted
Feature type: all
Training data size: 1804
Testing data size: 473
creating features for speech...
scripted
500
1000
1500
2000
speech_features shape (2277, 100, 34, 3)
creating labels...
Y.shape:  (2277, 4)
inputs shape: (?, ?, 256)
_________________________________________________________________
Layer (type)                 Output Shape              Param #   
=================================================================
input_1 (InputLayer)         (None, 100, 34, 3)        0         
_________________________________________________________________
conv2d_1 (Conv2D)            (None, 100, 34, 128)      5888      
_________________________________________________________________
max_pooling2d_1 (MaxPooling2 (None, 50, 17, 128)       0         
_________________________________________________________________
dropout_1 (Dropout)          (None, 50, 17, 128)       0         
_________________________________________________________________
conv2d_2 (Conv2D)            (None, 50, 17, 256)       491776    
_________________________________________________________________
dropout_2 (Dropout)          (None, 50, 17, 256)       0         
_________________________________________________________________
conv2d_3 (Conv2D)            (None, 50, 17, 256)       983296    
_________________________________________________________________
dropout_3 (Dropout)          (None, 50, 17, 256)       0         
_________________________________________________________________
conv2d_4 (Conv2D)            (None, 50, 17, 256)       983296    
_________________________________________________________________
dropout_4 (Dropout)          (None, 50, 17, 256)       0         
_________________________________________________________________
conv2d_5 (Conv2D)            (None, 50, 17, 256)       983296    
_________________________________________________________________
dropout_5 (Dropout)          (None, 50, 17, 256)       0         
_________________________________________________________________
dense_1 (Dense)              (None, 50, 17, 512)       131584    
_________________________________________________________________
batch_normalization_1 (Batch (None, 50, 17, 512)       2048      
_________________________________________________________________
reshape_1 (Reshape)          (None, 100, 4352)         0         
_________________________________________________________________
bidirectional_1 (Bidirection (None, 100, 512)          9439232   
_________________________________________________________________
dropout_6 (Dropout)          (None, 100, 512)          0         
_________________________________________________________________
lstm_2 (LSTM)                (None, 100, 256)          787456    
_________________________________________________________________
dropout_7 (Dropout)          (None, 100, 256)          0         
_________________________________________________________________
AttentionDecoder (AttentionD (None, 100, 128)          344832    
_________________________________________________________________
flatten_1 (Flatten)          (None, 12800)             0         
_________________________________________________________________
dense_2 (Dense)              (None, 512)               6554112   
_________________________________________________________________
batch_normalization_2 (Batch (None, 512)               2048      
_________________________________________________________________
dense_3 (Dense)              (None, 4)                 2052      
=================================================================
Total params: 20,710,916
Trainable params: 20,708,868
Non-trainable params: 2,048
_________________________________________________________________
class_weights_dict {0: 0.6681481481481482, 1: 1.7826086956521738, 2: 0.880859375, 3: 1.239010989010989}
Train on 1533 samples, validate on 271 samples
Epoch 1/30

  32/1533 [..............................] - ETA: 4:56 - loss: 1.4182 - acc: 0.2188 - Top2Acc: 0.5312 - Top3Acc: 0.8125
…
