…
/net/store/scratch/even/valid_until_31_aug_2018/juhuang/multimodal/iemocap/HearYou2.0/datasets/glove.42B.300d.txt
G Word embeddings: 1917495
G Null word embeddings: 90
creating features for speech...
all
500
1000
1500
2000
2500
3000
3500
4000
4500
speech_features shape (4936, 100, 12, 3)
creating labels...
Y.shape:  (4936, 4)
inputs shape: (?, ?, 256)
inputs shape: (?, ?, 256)
__________________________________________________________________________________________________
Layer (type)                    Output Shape         Param #     Connected to                     
==================================================================================================
input_2 (InputLayer)            (None, 100, 12, 3)   0                                            
__________________________________________________________________________________________________
conv2d_1 (Conv2D)               (None, 100, 12, 128) 5888        input_2[0][0]                    
__________________________________________________________________________________________________
max_pooling2d_1 (MaxPooling2D)  (None, 50, 6, 128)   0           conv2d_1[0][0]                   
__________________________________________________________________________________________________
dropout_3 (Dropout)             (None, 50, 6, 128)   0           max_pooling2d_1[0][0]            
__________________________________________________________________________________________________
conv2d_2 (Conv2D)               (None, 50, 6, 256)   491776      dropout_3[0][0]                  
__________________________________________________________________________________________________
dropout_4 (Dropout)             (None, 50, 6, 256)   0           conv2d_2[0][0]                   
__________________________________________________________________________________________________
conv2d_3 (Conv2D)               (None, 50, 6, 256)   983296      dropout_4[0][0]                  
__________________________________________________________________________________________________
dropout_5 (Dropout)             (None, 50, 6, 256)   0           conv2d_3[0][0]                   
__________________________________________________________________________________________________
conv2d_4 (Conv2D)               (None, 50, 6, 256)   983296      dropout_5[0][0]                  
__________________________________________________________________________________________________
dropout_6 (Dropout)             (None, 50, 6, 256)   0           conv2d_4[0][0]                   
__________________________________________________________________________________________________
conv2d_5 (Conv2D)               (None, 50, 6, 256)   983296      dropout_6[0][0]                  
__________________________________________________________________________________________________
dropout_7 (Dropout)             (None, 50, 6, 256)   0           conv2d_5[0][0]                   
__________________________________________________________________________________________________
dense_2 (Dense)                 (None, 50, 6, 512)   131584      dropout_7[0][0]                  
__________________________________________________________________________________________________
input_1 (InputLayer)            (None, 500)          0                                            
__________________________________________________________________________________________________
batch_normalization_1 (BatchNor (None, 50, 6, 512)   2048        dense_2[0][0]                    
__________________________________________________________________________________________________
embedding_1 (Embedding)         (None, 500, 300)     821100      input_1[0][0]                    
__________________________________________________________________________________________________
reshape_1 (Reshape)             (None, 100, 1536)    0           batch_normalization_1[0][0]      
__________________________________________________________________________________________________
bidirectional_1 (Bidirectional) (None, 500, 512)     1140736     embedding_1[0][0]                
__________________________________________________________________________________________________
bidirectional_2 (Bidirectional) (None, 100, 512)     3672064     reshape_1[0][0]                  
__________________________________________________________________________________________________
dropout_1 (Dropout)             (None, 500, 512)     0           bidirectional_1[0][0]            
__________________________________________________________________________________________________
dropout_8 (Dropout)             (None, 100, 512)     0           bidirectional_2[0][0]            
__________________________________________________________________________________________________
lstm_2 (LSTM)                   (None, 500, 256)     787456      dropout_1[0][0]                  
__________________________________________________________________________________________________
lstm_4 (LSTM)                   (None, 100, 256)     787456      dropout_8[0][0]                  
__________________________________________________________________________________________________
dropout_2 (Dropout)             (None, 500, 256)     0           lstm_2[0][0]                     
__________________________________________________________________________________________________
dropout_9 (Dropout)             (None, 100, 256)     0           lstm_4[0][0]                     
__________________________________________________________________________________________________
AttentionDecoder_tx (AttentionD (None, 500, 256)     984576      dropout_2[0][0]                  
__________________________________________________________________________________________________
AttentionDecoder_sp (AttentionD (None, 100, 256)     984576      dropout_9[0][0]                  
__________________________________________________________________________________________________
flatten_1 (Flatten)             (None, 128000)       0           AttentionDecoder_tx[0][0]        
__________________________________________________________________________________________________
flatten_2 (Flatten)             (None, 25600)        0           AttentionDecoder_sp[0][0]        
__________________________________________________________________________________________________
dense_1 (Dense)                 (None, 256)          32768256    flatten_1[0][0]                  
__________________________________________________________________________________________________
dense_3 (Dense)                 (None, 256)          6553856     flatten_2[0][0]                  
__________________________________________________________________________________________________
concatenate_1 (Concatenate)     (None, 512)          0           dense_1[0][0]                    
                                                                 dense_3[0][0]                    
__________________________________________________________________________________________________
dense_4 (Dense)                 (None, 4)            2052        concatenate_1[0][0]              
==================================================================================================
Total params: 52,083,312
Trainable params: 52,082,288
Non-trainable params: 1,024
__________________________________________________________________________________________________
class_weights_dict {0: 1.0284030010718113, 1: 1.2931266846361187, 2: 0.7246978851963746, 3: 1.1436233611442193}
…
