…
{'epochs': 30, 'batch_size': 32, 'train_val_split': [0.85, 0.15], 'model': 'models.speech_delta', 'emotion': ['ang', 'exc', 'neu', 'sad'], 'data_type': 'all', 'feature_type': 'all'}
Training on speech_delta
Data type: all
Feature type: all
Training data size: 3838
Testing data size: 1098
creating features for speech...
all
500
1000
1500
2000
2500
3000
3500
4000
4500
speech_features shape (4936, 100, 34, 3)
creating labels...
Y.shape:  (4936, 4)
inputs shape: (?, ?, 256)
_________________________________________________________________
Layer (type)                 Output Shape              Param #   
=================================================================
input_1 (InputLayer)         (None, 100, 34, 3)        0         
_________________________________________________________________
conv2d_1 (Conv2D)            (None, 100, 34, 128)      5888      
_________________________________________________________________
max_pooling2d_1 (MaxPooling2 (None, 50, 17, 128)       0         
_________________________________________________________________
dropout_1 (Dropout)          (None, 50, 17, 128)       0         
_________________________________________________________________
conv2d_2 (Conv2D)            (None, 50, 17, 256)       491776    
_________________________________________________________________
dropout_2 (Dropout)          (None, 50, 17, 256)       0         
_________________________________________________________________
conv2d_3 (Conv2D)            (None, 50, 17, 256)       983296    
_________________________________________________________________
dropout_3 (Dropout)          (None, 50, 17, 256)       0         
_________________________________________________________________
conv2d_4 (Conv2D)            (None, 50, 17, 256)       983296    
_________________________________________________________________
dropout_4 (Dropout)          (None, 50, 17, 256)       0         
_________________________________________________________________
conv2d_5 (Conv2D)            (None, 50, 17, 256)       983296    
_________________________________________________________________
dropout_5 (Dropout)          (None, 50, 17, 256)       0         
_________________________________________________________________
dense_1 (Dense)              (None, 50, 17, 512)       131584    
_________________________________________________________________
batch_normalization_1 (Batch (None, 50, 17, 512)       2048      
_________________________________________________________________
reshape_1 (Reshape)          (None, 100, 4352)         0         
_________________________________________________________________
bidirectional_1 (Bidirection (None, 100, 512)          9439232   
_________________________________________________________________
dropout_6 (Dropout)          (None, 100, 512)          0         
_________________________________________________________________
lstm_2 (LSTM)                (None, 100, 256)          787456    
_________________________________________________________________
dropout_7 (Dropout)          (None, 100, 256)          0         
_________________________________________________________________
AttentionDecoder (AttentionD (None, 100, 128)          344832    
_________________________________________________________________
flatten_1 (Flatten)          (None, 12800)             0         
_________________________________________________________________
dense_2 (Dense)              (None, 512)               6554112   
_________________________________________________________________
batch_normalization_2 (Batch (None, 512)               2048      
_________________________________________________________________
dense_3 (Dense)              (None, 4)                 2052      
=================================================================
Total params: 20,710,916
Trainable params: 20,708,868
Non-trainable params: 2,048
_________________________________________________________________
class_weights_dict {0: 1.0284030010718113, 1: 1.2931266846361187, 2: 0.7246978851963746, 3: 1.1436233611442193}
Train on 3262 samples, validate on 576 samples
Epoch 1/30

  32/3262 [..............................] - ETA: 10:37 - loss: 1.3920 - acc: 0.3438 - Top2Acc: 0.5312 - Top3Acc: 0.6250
…
