…
2000
2500
x_train_speech shape:  (2659, 100, 34)
deltas shape:  (2659, 100, 34)
deltasdeltas shape:  (2659, 100, 34)
creating mocap data...
x_train_mocap.shape (2659, 200, 189, 1)
creating labels...
Y.shape:  (2659, 4)
inputs shape: (?, ?, 128)
inputs shape: (?, ?, 128)
__________________________________________________________________________________________________
Layer (type)                    Output Shape         Param #     Connected to                     
==================================================================================================
input_3 (InputLayer)            (None, 200, 189, 1)  0                                            
__________________________________________________________________________________________________
conv2d_1 (Conv2D)               (None, 100, 95, 32)  320         input_3[0][0]                    
__________________________________________________________________________________________________
batch_normalization_1 (BatchNor (None, 100, 95, 32)  128         conv2d_1[0][0]                   
__________________________________________________________________________________________________
dropout_5 (Dropout)             (None, 100, 95, 32)  0           batch_normalization_1[0][0]      
__________________________________________________________________________________________________
conv2d_2 (Conv2D)               (None, 50, 48, 64)   18496       dropout_5[0][0]                  
__________________________________________________________________________________________________
batch_normalization_2 (BatchNor (None, 50, 48, 64)   256         conv2d_2[0][0]                   
__________________________________________________________________________________________________
input_1 (InputLayer)            (None, 500)          0                                            
__________________________________________________________________________________________________
dropout_6 (Dropout)             (None, 50, 48, 64)   0           batch_normalization_2[0][0]      
__________________________________________________________________________________________________
embedding_1 (Embedding)         (None, 500, 300)     648000      input_1[0][0]                    
__________________________________________________________________________________________________
input_2 (InputLayer)            (None, 100, 34)      0                                            
__________________________________________________________________________________________________
conv2d_3 (Conv2D)               (None, 25, 24, 64)   36928       dropout_6[0][0]                  
__________________________________________________________________________________________________
bidirectional_1 (Bidirectional) (None, 500, 256)     439296      embedding_1[0][0]                
__________________________________________________________________________________________________
bidirectional_2 (Bidirectional) (None, 100, 256)     166912      input_2[0][0]                    
__________________________________________________________________________________________________
batch_normalization_3 (BatchNor (None, 25, 24, 64)   256         conv2d_3[0][0]                   
__________________________________________________________________________________________________
dropout_1 (Dropout)             (None, 500, 256)     0           bidirectional_1[0][0]            
__________________________________________________________________________________________________
dropout_3 (Dropout)             (None, 100, 256)     0           bidirectional_2[0][0]            
__________________________________________________________________________________________________
dropout_7 (Dropout)             (None, 25, 24, 64)   0           batch_normalization_3[0][0]      
__________________________________________________________________________________________________
lstm_2 (LSTM)                   (None, 500, 128)     197120      dropout_1[0][0]                  
__________________________________________________________________________________________________
lstm_4 (LSTM)                   (None, 100, 128)     197120      dropout_3[0][0]                  
__________________________________________________________________________________________________
conv2d_4 (Conv2D)               (None, 13, 12, 128)  73856       dropout_7[0][0]                  
__________________________________________________________________________________________________
dropout_2 (Dropout)             (None, 500, 128)     0           lstm_2[0][0]                     
__________________________________________________________________________________________________
dropout_4 (Dropout)             (None, 100, 128)     0           lstm_4[0][0]                     
__________________________________________________________________________________________________
batch_normalization_4 (BatchNor (None, 13, 12, 128)  512         conv2d_4[0][0]                   
__________________________________________________________________________________________________
AttentionDecoder_tx (AttentionD (None, 500, 128)     246528      dropout_2[0][0]                  
__________________________________________________________________________________________________
AttentionDecoder_sp (AttentionD (None, 100, 128)     246528      dropout_4[0][0]                  
__________________________________________________________________________________________________
dropout_8 (Dropout)             (None, 13, 12, 128)  0           batch_normalization_4[0][0]      
__________________________________________________________________________________________________
flatten_1 (Flatten)             (None, 64000)        0           AttentionDecoder_tx[0][0]        
__________________________________________________________________________________________________
flatten_2 (Flatten)             (None, 12800)        0           AttentionDecoder_sp[0][0]        
__________________________________________________________________________________________________
flatten_3 (Flatten)             (None, 19968)        0           dropout_8[0][0]                  
__________________________________________________________________________________________________
dense_1 (Dense)                 (None, 256)          16384256    flatten_1[0][0]                  
__________________________________________________________________________________________________
dense_2 (Dense)                 (None, 256)          3277056     flatten_2[0][0]                  
__________________________________________________________________________________________________
dense_3 (Dense)                 (None, 256)          5112064     flatten_3[0][0]                  
__________________________________________________________________________________________________
concatenate_1 (Concatenate)     (None, 768)          0           dense_1[0][0]                    
                                                                 dense_2[0][0]                    
                                                                 dense_3[0][0]                    
__________________________________________________________________________________________________
dense_4 (Dense)                 (None, 256)          196864      concatenate_1[0][0]              
__________________________________________________________________________________________________
dense_5 (Dense)                 (None, 4)            1028        dense_4[0][0]                    
==================================================================================================
Total params: 27,243,524
Trainable params: 27,242,948
Non-trainable params: 576
__________________________________________________________________________________________________
class_weights_dict {0: 2.278225806451613, 1: 1.0089285714285714, 2: 0.6062231759656652, 3: 1.0865384615384615}
…
