…
3600
3700
3800
3900
4000
4100
4200
4300
4400
4500
4600
4700
4800
4900
x_train_speech shape:  (4936, 100, 34)
creating mocap data...
x_train_mocap.shape (4936, 200, 189)
x_train_mocap.shape (4936, 200, 189, 1)
creating labels...
Y.shape:  (4936, 4)
inputs shape: (?, ?, 256)
__________________________________________________________________________________________________
Layer (type)                    Output Shape         Param #     Connected to                     
==================================================================================================
input_3 (InputLayer)            (None, 200, 189, 1)  0                                            
__________________________________________________________________________________________________
conv2d_1 (Conv2D)               (None, 100, 95, 32)  320         input_3[0][0]                    
__________________________________________________________________________________________________
batch_normalization_1 (BatchNor (None, 100, 95, 32)  128         conv2d_1[0][0]                   
__________________________________________________________________________________________________
dropout_5 (Dropout)             (None, 100, 95, 32)  0           batch_normalization_1[0][0]      
__________________________________________________________________________________________________
conv2d_2 (Conv2D)               (None, 50, 48, 64)   18496       dropout_5[0][0]                  
__________________________________________________________________________________________________
batch_normalization_2 (BatchNor (None, 50, 48, 64)   256         conv2d_2[0][0]                   
__________________________________________________________________________________________________
dropout_6 (Dropout)             (None, 50, 48, 64)   0           batch_normalization_2[0][0]      
__________________________________________________________________________________________________
conv2d_3 (Conv2D)               (None, 25, 24, 64)   36928       dropout_6[0][0]                  
__________________________________________________________________________________________________
batch_normalization_3 (BatchNor (None, 25, 24, 64)   256         conv2d_3[0][0]                   
__________________________________________________________________________________________________
dropout_7 (Dropout)             (None, 25, 24, 64)   0           batch_normalization_3[0][0]      
__________________________________________________________________________________________________
input_1 (InputLayer)            (None, 500)          0                                            
__________________________________________________________________________________________________
input_2 (InputLayer)            (None, 100, 34)      0                                            
__________________________________________________________________________________________________
conv2d_4 (Conv2D)               (None, 13, 12, 128)  73856       dropout_7[0][0]                  
__________________________________________________________________________________________________
embedding_1 (Embedding)         (None, 500, 300)     821100      input_1[0][0]                    
__________________________________________________________________________________________________
bidirectional_3 (Bidirectional) (None, 100, 256)     166912      input_2[0][0]                    
__________________________________________________________________________________________________
batch_normalization_4 (BatchNor (None, 13, 12, 128)  512         conv2d_4[0][0]                   
__________________________________________________________________________________________________
bidirectional_1 (Bidirectional) (None, 500, 512)     1140736     embedding_1[0][0]                
__________________________________________________________________________________________________
dropout_3 (Dropout)             (None, 100, 256)     0           bidirectional_3[0][0]            
__________________________________________________________________________________________________
dropout_8 (Dropout)             (None, 13, 12, 128)  0           batch_normalization_4[0][0]      
__________________________________________________________________________________________________
dropout_1 (Dropout)             (None, 500, 512)     0           bidirectional_1[0][0]            
__________________________________________________________________________________________________
bidirectional_4 (Bidirectional) (None, 100, 256)     394240      dropout_3[0][0]                  
__________________________________________________________________________________________________
conv2d_5 (Conv2D)               (None, 7, 6, 128)    147584      dropout_8[0][0]                  
__________________________________________________________________________________________________
bidirectional_2 (Bidirectional) (None, 500, 512)     1574912     dropout_1[0][0]                  
__________________________________________________________________________________________________
dropout_4 (Dropout)             (None, 100, 256)     0           bidirectional_4[0][0]            
__________________________________________________________________________________________________
batch_normalization_5 (BatchNor (None, 7, 6, 128)    512         conv2d_5[0][0]                   
__________________________________________________________________________________________________
dropout_2 (Dropout)             (None, 500, 512)     0           bidirectional_2[0][0]            
__________________________________________________________________________________________________
AttentionDecoder_sp (AttentionD (None, 100, 256)     984576      dropout_4[0][0]                  
__________________________________________________________________________________________________
dropout_9 (Dropout)             (None, 7, 6, 128)    0           batch_normalization_5[0][0]      
__________________________________________________________________________________________________
flatten_1 (Flatten)             (None, 256000)       0           dropout_2[0][0]                  
__________________________________________________________________________________________________
flatten_2 (Flatten)             (None, 25600)        0           AttentionDecoder_sp[0][0]        
__________________________________________________________________________________________________
flatten_3 (Flatten)             (None, 5376)         0           dropout_9[0][0]                  
__________________________________________________________________________________________________
dense_1 (Dense)                 (None, 256)          65536256    flatten_1[0][0]                  
__________________________________________________________________________________________________
dense_2 (Dense)                 (None, 256)          6553856     flatten_2[0][0]                  
__________________________________________________________________________________________________
dense_3 (Dense)                 (None, 256)          1376512     flatten_3[0][0]                  
__________________________________________________________________________________________________
concatenate_1 (Concatenate)     (None, 768)          0           dense_1[0][0]                    
                                                                 dense_2[0][0]                    
                                                                 dense_3[0][0]                    
__________________________________________________________________________________________________
dense_4 (Dense)                 (None, 256)          196864      concatenate_1[0][0]              
__________________________________________________________________________________________________
dense_5 (Dense)                 (None, 4)            1028        dense_4[0][0]                    
==================================================================================================
Total params: 79,025,840
Trainable params: 79,025,008
Non-trainable params: 832
__________________________________________________________________________________________________
Train on 3454 samples, validate on 741 samples
Epoch 1/20

  32/3454 [..............................] - ETA: 31:38 - loss: 1.6377 - acc: 0.1562 - Top2Acc: 0.4062 - Top3Acc: 0.5625
…
