…
{'epochs': 20, 'batch_size': 64, 'train_val_test_split': [0.7, 0.15, 0.15], 'split_seed': 42, 'model': 'models.speech_lstm_attention', 'emotion': ['ang', 'exc', 'neu', 'sad']}
creating features for speech...
100
200
300
400
500
600
700
800
900
1000
1100
1200
1300
1400
1500
1600
1700
1800
1900
2000
2100
2200
2300
2400
2500
2600
2700
2800
2900
3000
3100
3200
3300
3400
3500
3600
3700
3800
3900
4000
4100
4200
4300
4400
4500
4600
4700
4800
4900
x_train_speech shape:  (4936, 100, 34)
creating labels...
Y.shape:  (4936, 4)
inputs shape: (?, ?, 512)
_________________________________________________________________
Layer (type)                 Output Shape              Param #   
=================================================================
input_1 (InputLayer)         (None, 100, 34)           0         
_________________________________________________________________
bidirectional_1 (Bidirection (None, 100, 512)          595968    
_________________________________________________________________
dropout_1 (Dropout)          (None, 100, 512)          0         
_________________________________________________________________
bidirectional_2 (Bidirection (None, 100, 512)          1574912   
_________________________________________________________________
dropout_2 (Dropout)          (None, 100, 512)          0         
_________________________________________________________________
AttentionDecoder (AttentionD (None, 100, 256)          1377792   
_________________________________________________________________
flatten_1 (Flatten)          (None, 25600)             0         
_________________________________________________________________
dense_1 (Dense)              (None, 4)                 102404    
=================================================================
Total params: 3,651,076
Trainable params: 3,651,076
Non-trainable params: 0
_________________________________________________________________
Train on 3454 samples, validate on 741 samples
Epoch 1/20

  64/3454 [..............................] - ETA: 7:19 - loss: 1.3750 - acc: 0.1875 - Top2Acc: 0.5625 - Top3Acc: 0.7344
 128/3454 [>.............................] - ETA: 3:56 - loss: 1.3893 - acc: 0.2500 - Top2Acc: 0.5312 - Top3Acc: 0.7188
…
