…
model: models.mocap_lstm_attention
{'epochs': 20, 'batch_size': 64, 'train_val_test_split': [0.7, 0.15, 0.15], 'split_seed': 42, 'model': 'models.mocap_lstm_attention', 'emotion': ['ang', 'exc', 'neu', 'sad']}
creating mocap data...
x_train_mocap.shape (4936, 200, 189)
x_train_mocap.shape (4936, 200, 189, 1)
creating labels...
Y.shape:  (4936, 4)
inputs shape: (?, ?, 512)
_________________________________________________________________
Layer (type)                 Output Shape              Param #   
=================================================================
input_1 (InputLayer)         (None, 200, 189)          0         
_________________________________________________________________
bidirectional_1 (Bidirection (None, 200, 512)          913408    
_________________________________________________________________
dropout_1 (Dropout)          (None, 200, 512)          0         
_________________________________________________________________
bidirectional_2 (Bidirection (None, 200, 512)          1574912   
_________________________________________________________________
dropout_2 (Dropout)          (None, 200, 512)          0         
_________________________________________________________________
AttentionDecoder (AttentionD (None, 200, 256)          1377792   
_________________________________________________________________
flatten_1 (Flatten)          (None, 51200)             0         
_________________________________________________________________
dense_1 (Dense)              (None, 256)               13107456  
_________________________________________________________________
dense_2 (Dense)              (None, 4)                 1028      
=================================================================
Total params: 16,974,596
Trainable params: 16,974,596
Non-trainable params: 0
_________________________________________________________________
Train on 3454 samples, validate on 741 samples
Epoch 1/20

  64/3454 [..............................] - ETA: 4:37 - loss: 1.3802 - acc: 0.3438 - Top2Acc: 0.6250 - Top3Acc: 0.8750
 128/3454 [>.............................] - ETA: 3:04 - loss: 1.4022 - acc: 0.3203 - Top2Acc: 0.5703 - Top3Acc: 0.8438
…
